4、实体识别/4.3-直播PPT和代码/4.3代码/tests/test_data/idcnn-crf/idcnn-crf-model.bin (torch_old, 257425 bytes, 42 tensors)

embedding.weight f4 [11, 100]
-0.2905932 -0.7206388 1.7379977 -0.571809 -1.0403917 -0.03365827 1.2403193 -0.77838665
0.43988225 1.1177193 1.4051946 0.40361142 2.5178812 0.030438047 -0.7106884 -1.1007543
0.0345372 -0.4014709 -1.9210138 0.9070313 0.7137143 1.1777323 1.6977851 0.51489204
-7.777329e-06 0.44732895 -0.78502345 0.6178026 0.3219185 1.1901245 1.8765321 0.008168236
0.7960188 0.8245689 1.7064004 0.6416013 0.2894616 -0.66470456 0.46504548 -0.07984778
-0.2557607 0.8700641 -0.80561674 -1.3827411 -0.0013561959 1.9076028 -0.79644567 0.0018880945
-0.94644976 0.6820509 -0.17282113 -0.4810512 -1.3489753 0.25514024 0.25481313 -1.8902103
0.6670436 -0.0014900204 0.23689008 0.01496684 0.05345473 -0.2081429 -0.21149702 0.19084066
0.12164909 -0.0001481338 -0.59789926 -0.3857094 -0.9505139 1.8304964 1.630806 0.0018035632
1.3786513 1.4929547 -0.65264696 -0.53785557 0.5647483 1.9499465 -0.63293606 -0.6317208
0.20634057 0.9056525 -2.1448896 -0.77987623 0.95007867 -0.24466316 -2.594794 -2.0281374
1.0159557 1.2234234 0.7069978 0.31165135 -1.2765465 -0.23264465 0.0019744732 -0.28106987
0.26647708 0.20984285 0.51734644 -0.08033203 0.7317334 -0.0298221 -1.435995 0.5569487
-0.2307948 1.0849636 -0.05460576 -1.4138021 0.18771291 1.477592 -0.65776545 -0.4212476
0.031219289 0.61538374 0.5557359 2.4848106 0.2881627 1.6202424 -0.80688435 -1.2388895
1.2460096 -0.009174531 1.1722416 1.217834 1.8978976 -0.9407551 -0.5231714 0.24430352
-0.07165986 0.27826235 -1.7923555 2.9887197 0.43652305 0.48645672 0.396533 1.0067856
-2.6576402 -0.88413906 -1.3065656 -0.6762817 -0.35486233 -0.64845574 -0.026827058 0.6462934
-0.0326422 -0.4533372 -0.067012616 -0.3504548 0.27557963 -0.11504496 -0.586396 0.4730913
-1.4561275 -0.73385066 1.8908659 -0.59102446 1.8581187 -0.9514726 -0.56600124 0.15906708
-1.7981927 -0.08016973 0.9794646 0.1981143 1.2249249 -0.5224342 0.80345273 0.12430627
-0.3364893 -0.5904194 0.38154608 -0.7529505 -0.6846488 1.1670022 0.8764524 -1.4070342
0.002704071 -0.08563304 -0.21448702 -0.4800593 -1.061958 0.3759771 -0.52056193 0.67465234
1.1494454 1.5164205 0.51473784 0.9471134 0.1986627 -0.6461687 0.23503226 0.6102147
0.3288756 0.10343801 1.3475639 -1.1609241 0.44754797 -0.38256466 -1.107543 1.1286777
-0.33548486 -0.6402133 -0.8085961 -1.0833488 -1.7027632 0.13207886 0.959825 -1.9456536
-0.06035773 0.13573562 -0.8798216 -0.24201536 0.86819404 -0.5397115 -0.9203925 0.10829464
0.1886528 -0.028168326 -1.6187246 -0.6365315 0.6354523 0.22827078 -0.5195958 0.29556963
0.7095481 1.6776985 2.8109353 -0.89879787 0.49045336 -0.4071639 -1.0959271 1.0247043
1.1726171 -0.3941691 2.0581646 0.6200159 1.0794028 -1.5977429 -0.5161305 -0.8548828
-0.27669576 -0.34693408 -0.6629528 -1.6890657 -1.6892836 -1.6587917 0.63500226 -0.33974013
-1.099957 -0.038940486 -0.015914587 -1.9150091 -0.6633906 0.19193126 -1.0884758 -1.4488513
00000000: a2c8 94be c97b 38bf b576 de3f 1362 12bf
00000010: 8e2b 85bf 41dd 09bd c8c2 9e3f 5944 47bf
00000020: 3f38 e13e 6d11 8f3f 6bdd b33f 28a6 ce3e
00000030: f724 2140 3659 f93c adef 35bf 84e5 8cbf
00000040: e176 0d3d 988d cdbe c8e3 f5bf 3433 683f
00000050: fbb5 363f efbf 963f 0651 d93f f7cf 033f
00000060: 607b 02b7 4d08 e53e 4cf7 48bf 5028 1e3f
00000070: 80d2 a43e 0056 983f 3432 f03f 11d4 053c
00000080: e3c7 4b3f f316 533f 546b da3f fc3f 243f
00000090: 5034 943e 142a 2abf 711a ee3e 3c87 a3bd
000000a0: 11f3 82be 85bc 5e3f e63c 4ebf a9fd b0bf
000000b0: 62c2 b1ba 542c f43f dde3 4bbf f079 f73a
000000c0: 884a 72bf e39a 2e3f 06f8 30be 584c f6be
000000d0: 39ab acbf bea1 823e de76 823e 69f2 f1bf
000000e0: 5fc3 2a3f ca4c c3ba 5093 723e 7a37 753c
000000f0: 59f3 5a3d 6a23 55be ad92 58be bc6b 433e
00000100: 2823 f93d 5d54 1bb9 ed0f 19bf b47b c5be
00000110: e154 73bf b54d ea3f 40be d03f 8a65 ec3a
00000120: a577 b03f 2419 bf3f df13 27bf e7b0 09bf
00000130: 5893 103f d997 f93f 1908 22bf 74b8 21bf
00000140: f14a 533e d8d8 673f df45 09c0 f8a5 47bf
00000150: 5b38 733f fb88 7abe 1b11 26c0 01cd 01c0
00000160: d60a 823f 2399 9c3f cffd 343f c490 9f3e
00000170: e065 a3bf 663a 6ebe 2a66 013b 64e8 8fbe
00000180: af6f 883e 0be1 563e d170 043f 1f85 a4bd
00000190: e152 3b3f 7a4d f4bc afce b7bf 3194 0e3f
000001a0: 7955 6cbe 16e0 8a3f 4aaa 5fbd 78f7 b4bf
000001b0: d037 403e bc21 bd3f 5163 28bf c4ad d7be
000001c0: 98bf ff3c ca89 1d3f b544 0e3f 2307 1f40
000001d0: 108a 933e 1a64 cf3f f98f 4ebf ee93 9ebf
000001e0: 3e7d 9f3f c650 16bc 030c 963f fce1 9b3f
000001f0: 4fee f23f 54d5 70bf 90ee 05bf b42a 7a3e
00000200: 68c2 92bd 6778 8e3e e86b e5bf 2f47 3f40
00000210: f37f df3e db10 f93e 6006 cb3e 5ade 803f
00000220: c716 2ac0 f056 62bf 8b3d a7bf cc20 2dbf
00000230: 84b0 b5be 3201 26bf 6bc4 dbbc 7c73 253f
00000240: d4b3 05bd d01b e8be e93d 89bd d06e b3be
00000250: c618 8d3e b19c ebbd 0c1e 16bf 0639 f23e
00000260: 6362 babf a3dd 3bbf e507 f23f 614d 17bf
00000270: d5d6 ed3f b593 73bf 75e5 10bf 7be2 223e
00000280: 2e2b e6bf 0730 a4bd 31be 7a3f 7ade 4a3e
00000290: 57ca 9c3f 3fbe 05bf 14af 4d3f 4994 fe3d
000002a0: 5348 acbe ba25 17bf 025a c33e 5dc1 40bf
000002b0: 2545 2fbf 5460 953f 2f5f 603f b219 b4bf
000002c0: c936 313b 6060 afbd 7ca2 5bbe 55ca f5be
000002d0: 3dee 87bf 1280 c03e 8c43 05bf 04b6 2c3f
000002e0: 0721 933f 111a c23f dcc5 033f 0676 723f
000002f0: 3c6e 4b3e 506b 25bf 4cac 703e 0837 1c3f
00000300: 6262 a83e 4fd7 d33d f97c ac3f 2999 94bf
00000310: 0225 e53e 84df c3be f8c3 8dbf 8378 903f
00000320: acc4 abbe 05e5 23bf 2700 4fbf 2cab 8abf
00000330: 25f4 d9bf ae3f 073e 17b7 753f 2d0b f9bf
00000340: ab39 77bd 47fe 0a3e fd3b 61bf e0d2 77be
00000350: f741 5e3f 882a 0abf d89e 6bbf 95c9 dd3d
00000360: 332e 413e 43c1 e6bc 5e32 cfbf baf3 22bf
00000370: 00ad 223f d1bf 693e 3b04 05bf e754 973e
00000380: f2a4 353f d3be d63f 5de6 3340 9e17 66bf
00000390: b41c fb3e c977 d0be 5747 8cbf 8329 833f
000003a0: 5118 963f 88d0 c9be f8b8 0340 5db9 1e3f
000003b0: df29 8a3f d782 ccbf 2121 04bf 99d9 5abf
000003c0: 11ab 8dbe 58a1 b1be 46b7 29bf 4e33 d8bf
000003d0: 723a d8bf 4953 d4bf 828f 223f 6bf2 adbe
000003e0: 64cb 8cbf 0f80 1fbd 4f5f 82bc 051f f5bf
000003f0: f7d3 29bf a189 443e 2d53 8bbf f673 b9bf

idcnn.linear.weight f4 [64, 100]
0.021298537 0.004410877 0.034130484 -0.02206182 -0.0051199915 0.07894033 0.022275109 -0.092304975
0.003226544 0.09976529 0.061140053 -0.037743207 0.08004262 -0.060185734 -0.051085766 0.084645525
-0.012272359 0.093016304 -0.08422586 -0.004161339 0.0055457484 -0.029928824 0.011246682 -0.05298329
-0.055264454 0.062221542 -0.0015890196 0.03644593 -0.014948176 -0.048527252 -0.027483517 0.09976279
-0.02746252 -0.072190545 0.065914094 -0.015218169 0.024552764 -0.054351117 -0.038243823 0.013577698
0.005996248 -0.049227975 -0.0047530956 -0.021507958 -0.010900977 0.088520385 0.04832807 0.03440841
0.01852544 -0.029538622 0.039761994 -0.02588336 -0.016384294 0.030327205 0.0061373445 -0.04135444
-0.045085266 -0.03337919 -0.028719585 0.055046562 -0.035802145 -0.06320806 -0.0034302399 0.008377475
0.02992708 -0.016683279 -0.061201323 0.08662107 -0.0056610173 -0.076504216 0.09886681 -0.10083994
0.01061712 -0.012243976 -0.07575887 -0.051741634 0.08775732 -0.014636395 0.023679713 -0.08749005
0.06143839 0.015148277 0.016954893 0.07806567 0.06229803 0.054155912 -0.021702318 -0.074708216
0.04933007 -0.008975121 -0.049582984 0.08907971 -0.006037756 0.033049926 -0.07850707 0.045406107
0.04031278 -0.023008527 0.003297886 -0.02076975 -0.025125109 0.07160265 -0.03554353 -0.021279382
0.018577816 0.00039291286 -0.0628848 0.061431672 0.077204905 0.0030331928 -0.017730841 -0.007212444
-0.005164526 0.06864017 -0.048723716 0.031481702 -0.07931313 -0.0005859061 0.09231888 0.030756712
-0.0076778503 0.0061649787 0.041354883 0.08766547 -0.049090922 -0.06723662 -0.06303631 -0.063087694
0.086947925 0.056098398 0.06626842 -0.034973502 -0.050247163 0.072491124 0.06472107 0.08161868
-0.06549424 -0.019368399 -0.03423755 0.09486785 -0.06515653 -0.059697382 -0.026912184 -0.07827667
-0.033736706 -0.07241193 0.055475675 0.037915353 -0.095800765 0.08008963 0.05706393 -0.051361714
-0.017088061 0.029964095 -0.049472492 -0.07810019 0.0128948 -0.03335936 0.02913988 0.09815151
0.089559525 0.045525856 0.08138562 0.06572713 0.026646804 -0.05325596 -0.08170208 -0.00893268
0.027275246 -0.07111992 0.0508567 0.032068957 0.087744005 -0.0035927626 0.009801425 -0.069278315
-0.030469425 0.012724525 0.05405007 -0.0872264 0.04395343 -0.06434369 -0.06743422 -0.08011347
0.04111799 0.03764225 -0.064555325 -0.056285836 -0.039755777 0.0881425 -0.021749904 0.06349107
0.02707693 -0.07196914 -0.057161156 -0.0068546417 0.0055267573 -0.011024489 -0.071916744 0.034792747
0.081545725 0.0669573 0.056151714 -0.02382561 0.031203559 0.06945567 -0.00750105 -0.07998981
0.051567588 0.05162665 -0.04658592 -0.06340423 -0.089550816 -0.07885416 0.03556958 -0.08243879
-0.08881001 0.048839267 -0.039773982 -0.08451306 -0.09023749 -0.02194114 0.07850922 -0.084894784
-0.07924367 0.0012494636 0.008396417 -0.08453092 0.02575075 -0.016242485 0.04786142 -0.005507729
0.032872993 -0.0011322466 -0.04165514 0.041947957 0.02383206 0.07984912 -0.065850645 -0.084568664
0.08018579 0.0012196229 -0.03720851 0.060631413 -0.04471625 -0.07581408 0.00046468095 0.07872426
-0.059711773 -0.053398777 -0.04362763 -0.039852593 0.008415271 -0.04798755 0.0411469 0.038209558
00000000: 457a ae3c 1e89 903b 68cc 0b3d fdba b4bc
00000010: 9ac5 a7bb 78ab a13d 4a7a b63c 640a bdbd
00000020: 6d74 533b bf51 cc3d fe6d 7a3d 9f98 1abd
00000030: 63ed a33d 5185 76bd 4f3f 51bd a25a ad3d
00000040: 0112 49bc 557f be3d 9c7e acbd d75b 88bb
00000050: 1cb9 b53b 4b2d f5bc 0144 383c 0205 59bd
00000060: fb5c 62bd 04dc 7e3d a646 d0ba 5448 153d
00000070: 32e9 74bc 83c4 46bd 1d25 e1bc 6f50 cc3d
00000080: 14f9 e0bc a3d8 93bd f8fd 863d a155 79bc
00000090: e122 c93c 479f 5ebd 8ea5 1cbd fe74 5e3c
000000a0: 2d7c c43b 46a3 49bd dbbf 9bbb 7531 b0bc
000000b0: 039a 32bc 2d4a b53d a8f3 453d d5ef 0c3d
000000c0: aac2 973c fbfa f1bc 79dd 223d 5709 d4bc
000000d0: 5b38 86bc c270 f83c c71b c93b 4663 29bd
000000e0: 54ab 38bd 9eb8 08bd 5645 ebbc 8178 613d
000000f0: 45a5 12bd 3a73 81bd e0cd 60bb ad41 093c
00000100: a329 f53c 5fab 88bc 3dae 7abd 6366 b13d
00000110: 0e80 b9bb 3eae 9cbd af7a ca3d 2c85 cebd
00000120: 6ef3 2d3c f59a 48bc 7727 9bbd 09ef 53bd
00000130: 1cba b33d 7dcd 6fbc f5fb c13c fc2d b3bd
00000140: d2a6 7b3d 7b30 783c fde4 8a3c e5e0 9f3d
00000150: 382c 7f3d 97d2 5d3d 0fc9 b1bc 9f00 99bd
00000160: 540e 4a3d 630c 13bc 8717 4bbd 6c6f b63d
00000170: 5ed8 c5bb 5c5f 073d 51c8 a0bd c1fb 393d
00000180: 031f 253d 617c bcbc 5921 583b 5325 aabc
00000190: 2cd3 cdbc 69a4 923d 1896 11bd 1952 aebc
000001a0: 8130 983c dfff cd39 bfc9 80bd c79f 7b3d
000001b0: 9b1d 9e3d 88c8 463b 4540 91bc 5e56 ecbb
000001c0: 2f3b a9bb 3893 8c3d 8592 47bd f5f2 003d
000001d0: ec6e a2bd 7e97 19ba ae11 bd3d 80f5 fb3c
000001e0: 7a96 fbbb 9703 ca3b bd63 293d f489 b33d
000001f0: 9013 49bd 5ab3 89bd 2e19 81bd 1f34 81bd
00000200: c111 b23d 6fc7 653d bdb7 873d 6040 0fbd
00000210: f8cf 4dbd 3a76 943d 7b8c 843d b227 a73d
00000220: d821 86bd 7aaa 9ebc ac3c 0cbd 134a c23d
00000230: c970 85bd 3e85 74bd f176 dcbc 854f a0bd
00000240: 802f 0abd b54c 94bd 763a 633d 214d 1b3d
00000250: 3133 c4bd 0806 a43d debb 693d a960 52bd
00000260: 43fc 8bbc 4377 f53c aba3 4abd fef2 9fbd
00000270: b644 533c d3a3 08bd c2b6 ee3c a903 c93d
00000280: fc6a b73d 5279 3a3d 81ad a63d f29b 863d
00000290: 664a da3c ec22 5abd 6c53 a7bd 605a 12bc
000002a0: 5670 df3c 52a7 91bd 1d4f 503d bd5a 033d
000002b0: 21b3 b33d 8e74 6bbb 2896 203c cae1 8dbd
000002c0: 049b f9bc 877a 503c 9b63 5d3d c1a3 b2bd
000002d0: 8308 343d a0c6 83bd f41a 8abd 8812 a4bd
000002e0: 566b 283d c32e 1a3d 9535 84bd fa8b 66bd
000002f0: f4d6 22bd 0e84 b43d db2c b2bc 9b07 823d
00000300: 70d0 dd3c 8e64 93bd d121 6abd e79c e0bb
00000310: cd19 b53b 0fa0 34bc 1649 93bd d782 0e3d
00000320: 7201 a73d e920 893d 57ff 653d ed2d c3bc
00000330: 9b9e ff3c c63e 8e3d 5ecb f5bb b3d1 a3bd
00000340: 8938 533d 7776 533d e1d0 3ebd 14da 81bd
00000350: 6b66 b7bd 4a7e a1bd 68b1 113d abd5 a8bd
00000360: 06e2 b5bd af0b 483d 0bea 22bd 2f15 adbd
00000370: 6fce b8bd e8bd b3bc 71c9 a03d 51dd adbd
00000380: 814a a2bd 0bc5 a33a 2091 093c 8c1e adbd
00000390: 3df3 d23c f60e 85bc 560a 443d 2e7a b4bb
000003a0: d5a5 063d e467 94ba 959e 2abd 9fd1 2b3d
000003b0: 743b c33c ef87 a33d b4dc 86bd 5632 adbd
000003c0: 7338 a43d c1db 9f3a f367 18bd a558 783d
000003d0: 6328 37bd 6a44 9bbd 6ca0 f339 2f3a a13d
000003e0: 5594 74bd adb8 5abd e3b2 32bd 793c 23bd
000003f0: 34e0 093c 988e 44bd a789 283d a081 1c3d

idcnn.linear.bias f4 [64]
-0.01899391 -0.06986964 0.03549204 0.0684567 -0.06423798 0.07506643 0.023554597 -0.10095248
0.05357701 -0.05144365 0.022505054 -0.018014647 0.0044053285 -0.05212848 -0.03835928 0.026743652
-0.05972165 -0.05982479 0.043118633 0.04230699 -0.07754939 0.084528364 0.011708036 -0.07685311
-0.050754774 0.048639126 -0.013356404 -0.01844801 0.0149654215 -0.0059740553 -0.059270468 0.07250216
-0.002676555 0.090674736 -0.040886305 -0.07048072 -0.042831805 -0.08905532 0.04819234 0.06879895
0.10178552 0.012874822 -0.07720182 0.007263784 0.043930862 0.0019277846 -0.08863598 -0.03700771
-0.054539733 0.043329164 0.057902634 -0.024938278 0.0594463 -0.05445254 -0.041696757 0.0114854155
-0.09323539 -0.07659631 -0.066501714 -0.05221791 -0.048335254 0.037387606 0.0053847334 0.033700354
00000000: 1e99 9bbc d017 8fbd 1a60 113d 0733 8c3d
00000010: 348f 83bd 6ebc 993d 92f5 c03c 2dc0 cebd
00000020: 9173 5b3d 94b6 52bd 855c b83c 7493 93bc
00000030: 935a 903b ac84 55bd 9f1e 1dbd 8115 db3c
00000040: b09e 74bd d70a 75bd 2a9d 303d 184a 2d3d
00000050: 37d2 9ebd 351d ad3d 10d3 3f3c 2a65 9dbd
00000060: 3de4 4fbd d239 473d d2d4 5abc 4820 97bc
00000070: 8731 753c 02c2 c3bb 97c5 72bd 037c 943d
00000080: 2469 2fbb adb3 b93d 6678 27bd 3258 90bd
00000090: 6770 2fbd a362 b6bd 5565 453d 77e6 8c3d
000000a0: ed74 d03d ebf0 523c fd1b 9ebd 0905 ee3b
000000b0: d9f0 333d b8ad fc3a c886 b5bd 6695 17bd
000000c0: 0e65 5fbd ec79 313d 502b 6d3d 5c4b ccbc
000000d0: f77d 733d a009 5fbd 38ca 2abd 532d 3c3c
000000e0: 32f2 bebd 87de 9cbd 0d32 88bd 72e2 55bd
000000f0: 30fb 45bd bf23 193d 6b72 b03b 6209 0a3d

idcnn.idcnn.block0.layer0.weight f4 [64, 64, 3]
-0.036631245 -0.0061403792 -0.04541336 0.0312608 0.009065946 0.0014345673 0.04503733 -0.016393203
-0.06166358 0.014020078 -0.069718786 0.009919117 0.025140349 0.0024389562 0.023334295 -0.046395898
-0.06803533 -0.019765168 0.056212876 -0.025918879 -0.046678696 -0.037937425 -0.049011104 -0.015324039
-0.048356786 -0.044659425 -0.02429151 -0.07617003 -0.030935174 -0.04860262 -0.048859574 0.027304692
0.0020175015 0.043467022 0.06335931 0.06502062 0.044396024 -0.026472077 -0.060706243 -0.013216224
-0.00990059 0.050858658 -0.057581075 0.034447353 0.0019735899 0.044046648 0.024527099 -0.028717652
-0.01522596 -0.06227154 0.057643864 -0.058126118 -0.016629996 0.030230442 0.062854104 -0.05906536
0.047800045 -0.029672064 0.0021748773 0.0038329398 0.034882568 -0.030932978 -0.0042276266 0.03911439
-0.069246665 -0.04516362 -0.018827865 0.05168977 0.072053105 -0.03991398 0.059320007 0.06789978
-0.044924233 0.045533232 0.055896953 0.07199176 0.063200474 0.015078323 0.017767267 0.0065964228
0.032559693 0.007963927 -0.04712442 0.055995684 -0.05947812 -0.015608757 -0.0146519365 0.02807904
0.05886644 -0.008538209 -0.01922947 0.023967177 0.067298025 -0.0313063 0.014262073 0.05312383
0.040137857 0.0242455 -0.050757557 0.043324485 -0.008998828 0.05679497 0.0063144765 0.04075667
-0.040289007 0.05672748 0.038435265 -0.01036821 0.041864254 0.04414556 0.02529166 0.0150694
-0.019428618 -0.0167043 0.025557118 -0.02399337 0.010519406 0.015603376 -0.011616892 0.040514056
-0.018197283 -0.03997296 0.05648845 -0.026828678 -0.050107095 -0.008008392 0.038459975 -0.04202191
-0.04501599 0.005065847 -0.06846204 -0.05895155 -0.033505566 0.045461398 0.005586276 0.033035498
-0.024333451 0.07015721 -0.057365574 -0.0026616969 0.038135365 -0.050446715 0.030043716 0.03208368
0.02839974 0.03892046 -0.0030523213 -0.056243137 0.020959334 0.027190708 -0.070465036 0.0317535
0.05389015 -0.00847852 0.034538504 -0.045721322 -0.06530051 -0.044777755 0.0180825 -0.033160053
-0.02568062 0.01745227 -0.01188235 -0.020795736 -0.05167845 0.019322008 -0.058092006 0.01609864
0.031843606 -0.0112446 0.008879032 0.011231357 0.073924 -0.05779232 0.036765363 0.05195346
0.0015294359 0.04404098 -0.024515843 0.034241572 -0.04353268 -0.0020040132 0.06464015 0.032212686
-0.061413366 -0.06138666 -0.022967285 0.043031547 0.0065173134 -0.056245364 -0.01961865 0.06854506
-0.020531412 0.055189054 -0.034153022 -0.04590948 0.0023629526 0.055421658 -0.028532183 -0.032932423
-0.0031994106 0.04887854 -0.055850234 -0.013851011 0.028046805 0.06505618 -0.06368499 -0.0027621894
-0.061271757 -0.03061849 -0.017092118 0.01591334 -0.05837036 -0.01384553 -0.008311566 -0.036941074
-0.043646812 -0.051522855 0.012001197 -0.015770871 -0.012646853 -0.028746063 -0.02155672 0.029163089
0.003047864 0.050619315 -0.03371172 -0.071097 0.07384596 0.008651593 -0.013316739 -0.008891103
-0.007556323 -0.058808267 0.009360623 -0.055802543 -0.01616052 0.025623152 -0.013456411 0.075515665
-0.013434899 0.023231743 0.049619697 -0.033052027 -0.054103997 -0.0051159617 0.061433673 0.062277652
-0.061757315 -0.05703739 0.05910085 -0.041954946 0.046227057 0.010682741 0.023523295 0.072686635
00000000: a50a 16bd 3c35 c9bb 5c03 3abd 530b 003d
00000010: 5589 143c 1708 bc3a 1079 383d 0a4b 86bc
00000020: f392 7cbd 78b4 653c b9c8 8ebd cb83 223c
00000030: 22f3 cd3c e5d6 1f3b 9027 bf3c a009 3ebd
00000040: 1b56 8bbd 90ea a1bc 793f 663d d453 d4bc
00000050: 2932 3fbd 4664 1bbd debf 48bd ae11 7bbc
00000060: c411 46bd cdec 36bd fdfe c6bc 08ff 9bbd
00000070: c36b fdbc 8a13 47bd fa20 48bd 17ae df3c
00000080: 0f38 043b 7a0a 323d 87c2 813d 8829 853d
00000090: 9bd8 353d f8db d8bc 1ca7 78bd dc88 58bc
000000a0: 1636 22bc 2b51 503d 22da 6bbd ab18 0d3d
000000b0: 5857 013b 426a 343d 0eed c83c 4841 ebbc
000000c0: 4e76 79bc 7110 7fbd f91b 6c3d a715 6ebd
000000d0: a13b 88bc d5a5 f73c a7b9 803d 85ee 71bd
000000e0: fbc9 433d d412 f3bc 6388 0e3b 0f32 7b3b
000000f0: 06e1 0e3d 2867 fdbc e787 8abb 6936 203d
00000100: 32d1 8dbd 7dfd 38bd e53c 9abc a7b8 533d
00000110: 9490 933d d77c 23bd 89f9 723d 0a0f 8b3d
00000120: 7902 38bd 0e81 3a3d 34f4 643d 6a70 933d
00000130: 406f 813d 120b 773c a98c 913c ce26 d83b
00000140: 505d 053d 227b 023c 8905 41bd bb5b 653d
00000150: 549f 73bd dfbb 7fbc ad0e 70bc 0406 e63c
00000160: f01d 713d d8e3 0bbc 1f87 9dbc d056 c43c
00000170: 8cd3 893d 093b 00bd 78ab 693c 6098 593d
00000180: 9867 243d 809e c63c 28e7 4fbd 0475 313d
00000190: d26f 13bc d8a1 683d abe9 ce3b 77f0 263d
000001a0: 1606 25bd 135b 683d 4c6e 1d3d 6ddf 29bc
000001b0: da79 2b3d fad1 343d 7530 cf3c a5e5 763c
000001c0: c428 9fbc 75d7 88bc 295d d13c be8d c4bc
000001d0: 9659 2c3c 4da5 7f3c c754 3ebc 11f2 253d
000001e0: 7812 95bc b0ba 23bd 6f60 673d d1c7 dbbc
000001f0: 193d 4dbd a135 03bc 3588 1d3d 2b1f 2cbd
00000200: b062 38bd 68ff a53b d335 8cbd 2e77 71bd
00000210: 223d 09bd bb35 3a3d 140d b73b 3b50 073d
00000220: f256 c7bc 95ae 8f3d 2af8 6abd dd6f 2ebb
00000230: d433 1c3d 37a1 4ebd 3d1e f63c 2d6a 033d
00000240: 92a6 e83c 0f6b 1f3d 7409 48bb 345f 66bd
00000250: e9b2 ab3c 0cbf de3c f94f 90bd f50f 023d
00000260: ebbb 5c3d 7ee9 0abc 3f78 0d3d 4846 3bbd
00000270: 46bc 85bd e168 37bd c021 943c d6d2 07bd
00000280: 2a60 d2bc 10f8 8e3c 30ae 42bc d25b aabc
00000290: c8ac 53bd 3049 9e3c e2f1 6dbd 4ce1 833c
000002a0: 716e 023d 453b 38bc 5c79 113c ba03 383c
000002b0: 7765 973d a4b7 6cbd 4797 163d 27cd 543d
000002c0: 5a77 c83a 5164 343d 73d5 c8bc e440 0c3d
000002d0: 534f 32bd c355 03bb 0e62 843d 73f1 033d
000002e0: 958c 7bbd 9470 7bbd e325 bcbc d941 303d
000002f0: 308f d53b 8a61 66bd 4bb7 a0bc 5a61 8c3d
00000300: 7e31 a8bc eb0d 623d 0ae4 0bbd 940b 3cbd
00000310: c4db 1a3b d201 633d 53bc e9bc 26e4 06bd
00000320: 34ad 51bb dd34 483d 37c3 64bd 5aef 62bc
00000330: 6ac2 e53c 2d3c 853d 476d 82bd d905 35bb
00000340: 18f8 7abd a1d3 fabc c504 8cbc b15c 823c
00000350: c215 6fbd 5dd8 62bc 3c2d 08bc 864f 17bd
00000360: 00c7 32bd a109 53bd aba0 443c ea31 81bc
00000370: bf34 4fbc dd7c ebbc b897 b0bc 6ee7 ee3c
00000380: acbe 473b 3356 4f3d 4d15 0abd 4e9b 91bd
00000390: 8d3c 973d 69bf 0d3c 742e 5abc fdab 11bc
000003a0: 089b f7bb f0e0 70bd 4c5d 193c 3591 64bd
000003b0: 1163 84bc a5e7 d13c 4778 5cbc f5a7 9a3d
000003c0: 0d1e 5cbc 7f50 be3c 063e 4b3d 9061 07bd
000003d0: 279c 5dbd cca3 a7bb e0a1 7b3d da16 7f3d
000003e0: 3df5 7cbd 0aa0 69bd bc13 723d f3d8 2bbd
000003f0: 9558 3d3d aa06 2f3c edb3 c03c bbdc 943d

idcnn.idcnn.block0.layer0.bias f4 [64]
-0.065832585 0.036063254 -0.01421125 -0.02980953 0.062380847 0.032537088 -0.07175574 -0.05002791
0.010042093 -0.06495099 -0.00021793612 0.04669837 -0.02851675 -0.063445315 -0.07895705 0.011798947
0.054257795 0.048967797 -0.054251023 0.052535098 0.06388692 -0.033108573 -0.0573709 -0.06667292
-0.018443223 0.04811599 0.0012442775 -0.012156619 -0.027710758 -0.005936392 -0.022544488 -0.028545955
0.07170573 -0.0717857 0.05550746 0.0724437 -0.0542066 0.061379164 0.04483631 0.04857045
-0.030907918 0.06242004 -0.04363774 0.040097397 0.06587873 -0.013526861 0.015383628 0.016198544
0.035778057 -0.013905744 0.0034414046 0.002149898 0.03983356 0.024419116 0.008901868 -0.07182579
-0.016492592 0.027253011 0.008815355 0.008217762 -0.047059383 0.061242033 -0.05903085 0.03062095
00000000: 3cd3 86bd 10b7 133d 4dd6 68bc 1e33 f4bc
00000010: 0f83 7f3d 9c45 053d acf4 92bd 11ea 4cbd
00000020: 9787 243c 0605 85bd c885 64b9 ca46 3f3d
00000030: f69b e9bc 9eef 81bd 3cb4 a1bd 5f50 413c
00000040: 6c3d 5e3d 7592 483d 5236 5ebd 0b2f 573d
00000050: 25d7 823d db9c 07bd c0fd 6abd d08b 88bd
00000060: 3e16 97bc 4615 453d 0617 a33a 8e2c 47bc
00000070: ac01 e3bc 1186 c2bb 38af b8bc 35d9 e9bc
00000080: 74da 923d 6204 93bd ca5b 633d 5d5d 943d
00000090: bd07 5ebd b868 7b3d 47a6 373d cff1 463d
000000a0: 9a32 fdbc 28ac 7f3d 7dbd 32bd 2b3d 243d
000000b0: 6deb 863d c49f 5dbc 9d0b 7c3c cfb2 843c
000000c0: 038c 123d ebd4 63bc 3089 613b 4ee5 0c3b
000000d0: 8428 233d 990a c83c 24d9 113c 6619 93bd
000000e0: 791b 87bc b541 df3c 476e 103c cba3 063c
000000f0: 57c1 40bd edd8 7a3d 55ca 71bd c9d8 fa3c

idcnn.idcnn.block0.layernorm.a_2 f4 [10]
1.0227476 1.0220474 1.02745 1.019392 1.0228678 1.0140593 1.0079902 1.0037745
0.9911942 0.9808872
00000000: 65e9 823f 73d2 823f 7b83 833f 707b 823f
00000010: 55ed 823f b2cc 813f d305 813f af7b 803f
00000020: e7be 7d3f 6c1b 7b3f

idcnn.idcnn.block0.layernorm.b_2 f4 [10]
-0.021989306 -0.0007749058 -0.014537341 0.003256254 0.016474878 0.01301837 0.0025979828 0.0011084307
-0.009227705 0.007817554
00000000: eb22 b4bc 0c23 4bba 072e 6ebc e066 553b
00000010: 53f6 863c 004b 553c eb42 2a3b c348 913a
00000020: cd2f 17bc 3315 003c

idcnn.idcnn.block0.layer1.weight f4 [64, 64, 3]
0.041254036 0.052300695 -0.02518997 0.020962814 -0.04440553 -0.023855407 0.065979764 -0.021742988
0.037284154 -0.019973684 -0.01789347 0.004571512 -0.015299378 0.0070032626 -0.028199753 -0.055254273
-0.020990413 0.045732316 -0.064436935 -0.021484964 0.0555389 0.019743845 0.01644599 0.030351393
0.007860152 0.026007164 -0.021205502 -0.037066497 0.018627046 -0.031925008 -0.01171788 0.01795716
-0.013028661 0.021301862 0.07461427 -0.049164288 -0.054240033 0.0007860215 -0.08058386 0.04199496
-0.051287036 0.037779067 0.053684354 0.064784184 -0.04900366 -0.03180666 0.026808713 0.006095575
0.026962677 0.028628323 0.06566353 0.04705356 -0.007877932 -0.04946003 -0.017224723 0.026208404
-0.034732893 -0.002689628 -0.023613619 -0.05130805 0.06952161 0.06538482 -0.008064547 -0.020283367
0.02879565 -0.049938243 -0.014833147 -0.06024144 -0.01164109 -0.082636796 -0.08050854 -0.023808926
0.009432845 0.012868544 -0.048093632 0.02060838 -0.04380672 -0.0048103724 0.06634726 -0.013658031
-0.054580394 -0.038931258 0.041124273 -0.06857926 -0.06922791 0.0012160602 -0.023670208 -0.06578537
0.0518736 0.010573454 -0.022295322 0.014069346 0.042876538 0.05043402 0.050120946 0.02374235
0.04289686 0.014929417 -0.037437476 -0.048088342 0.019784313 0.027552359 0.04629108 -0.032216746
0.022645265 0.0046085217 0.02705396 0.041472405 -0.0052174744 0.065386765 -0.024970355 0.031338774
-0.056996044 0.03192431 0.08020033 -0.0038685002 0.057209406 0.05764706 0.037668396 0.047963202
-0.06776538 0.052181255 0.030275466 0.048475515 0.02703674 -0.0091679515 0.06231918 -0.010955911
-0.0644642 0.022022206 -0.0066039115 0.016090373 -0.023088483 -0.018404296 0.016311223 -0.021377992
-0.02141264 -0.059774518 0.028043322 -0.012199111 -0.053458538 0.056870036 -0.0005801175 -0.05330902
-0.038282588 0.051746644 0.0026218595 -0.047324046 -0.03668431 -0.03391486 -0.052505035 0.03647904
0.0112411305 -0.052124046 -0.041976053 0.023588937 0.057601046 -0.046808444 -0.027757114 0.036798444
-0.056056567 -0.057220686 -0.043751374 0.044684634 -0.013961149 -0.025447635 -0.04094681 0.011989597
0.056479014 0.00044137234 -0.022473102 0.03173046 0.047662985 0.0068651605 -0.017014207 -0.036911044
-0.040514983 0.014410278 -0.06858161 -0.033342656 -0.055909853 0.065101184 0.0431463 -0.07008402
-0.08432989 -0.008398886 0.034028616 0.027613765 0.005832623 -0.028820157 0.031751435 0.0074443715
0.0639493 0.03867665 -0.044198584 -0.0005390658 -0.06268805 0.023471834 0.0013472069 -0.034023218
0.051388957 0.015437694 0.08219905 -0.07334103 -0.003775473 0.060695015 -0.029162033 -0.043853022
-0.008299926 0.08990344 0.0048208684 0.055244926 -0.026996259 -0.08913093 -0.06285757 0.04919425
-0.05969847 -0.025698086 0.021417547 -0.02762686 0.01421914 0.04104863 0.007279863 -0.053333435
0.07495308 -0.023150094 0.021536633 -0.011179258 -0.010347021 0.009406846 -0.06166097 0.01627323
0.013165462 0.06998536 -0.023640325 -0.012277897 0.001743651 -0.004526829 -0.0028261694 -0.07110794
0.008306477 -0.0630905 0.011735315 -0.004912997 0.056180418 0.027268367 -0.042786725 0.03188547
0.040061917 -0.06494935 0.008194667 0.059722777 -0.016749512 0.019306183 0.017757706 0.053120073
00000000: fef9 283d 4139 563d 325b cebc 35ba ab3c
00000010: 93e2 35bd 6a6c c3bc 6620 873d 5a1e b2bc
00000020: 45b7 183d da9f a3bc 5495 92bc 9fcc 953b
00000030: 3eaa 7abc a07b e53b 2b03 e7bc 4e52 62bd
00000040: 16f4 abbc cf51 3b3d 83f7 83bd 3c01 b0bc
00000050: c27c 633d d8bd a13c beb9 863c 7ca3 f83c
00000060: dec7 003c fa0c d53c 29b7 adbc 0ad3 17bd
00000070: bf97 983c ccc3 02bd 5afc 3fbc e51a 933c
00000080: 2a76 55bc 3e81 ae3c 5ecf 983d 7e60 49bd
00000090: cc2a 5ebd 030d 4e3a 2709 a5bd e802 2c3d
000000a0: 5b12 52bd 39be 1a3d 20e4 5b3d 92ad 843d
000000b0: 10b8 48bd b347 02bd f29d db3c 64bd c73b
000000c0: d5e0 dc3c f285 ea3c 9a7a 863d 3cbb 403d
000000d0: 7112 01bc 9a96 4abd dd1a 8dbc 02b3 d63c
000000e0: 1444 0ebd 7844 30bb 5971 c1bc 6428 52bd
000000f0: 5961 8e3d 7ae8 853d 2921 04bc 4e29 a6bc
00000100: dbe4 eb3c 0b8c 4cbd ba06 73bc babf 76bd
00000110: 45ba 3ebc 7b3d a9bd a9e1 a4bd f00a c3bc
00000120: 388c 1a3c 96d6 523c d4fd 44bd e8d2 a83c
00000130: ad6e 33bd 54a0 9dbb 12e1 873d efc5 5fbc
00000140: b18f 5fbd 6276 1fbd ed71 283d 4873 8cbd
00000150: 5dc7 8dbd 3664 9f3a 06e8 c1bc 7bba 86bd
00000160: 6979 543d 483c 2d3c aea4 b6bc 1d83 663c
00000170: 4f9f 2f3d e793 4e3d 9f4b 4d3d 517f c23c
00000180: 9eb4 2f3d 839a 743c 0a58 19bd 48f8 44bd
00000190: b612 a23c 7cb5 e13c b79b 3d3d b5f5 03bd
000001a0: 9082 b93c 1503 973b 44a0 dd3c f8de 293d
000001b0: 59f7 aabb 7fe9 853d a18e ccbc 165d 003d
000001c0: af74 69bd 11c3 023d 1240 a43d aa86 7dbb
000001d0: 6954 6a3d 531f 6c3d 2d4a 1a3d 1075 443d
000001e0: 93c8 8abd 03bc 553d 4104 f83c 438e 463d
000001f0: 277c dd3c 2d35 16bc 6642 7f3d 6c80 33bc
00000200: ce05 84bd ea67 b43c a065 d8bb f5cf 833c
00000210: 0f24 bdbc 9bc4 96bc 1d9f 853c e620 afbc
00000220: 9069 afbc 20d6 74bd 1cbb e53c c8de 47bc
00000230: 57f7 5abd 8ef0 683d 0713 18ba 8f5a 5abd
00000240: 34ce 1cbd 4af4 533d 81d3 2b3b dcd6 41bd
00000250: 4942 16bd 4fea 0abd 850f 57bd 0c6b 153d
00000260: b82c 383c 0680 55bd 15ef 2bbd 963d c13c
00000270: 13ef 6b3d 36ba 3fbd e362 e3bc f7b9 163d
00000280: 929b 65bd 3d60 6abd a434 33bd 3c07 373d
00000290: 4ebd 64bc 8f77 d0bc d8b7 27bd 0470 443c
000002a0: 8a56 673d fe67 e739 8319 b8bc ccf7 013d
000002b0: 433a 433d 24f5 e03b 6161 8bbc 0930 17bd
000002c0: 0af3 25bd 1619 6c3c 8474 8cbd 4f92 08bd
000002d0: bb01 65bd c553 853d 2dba 303d 3688 8fbd
000002e0: 26b5 acbd 7b9b 09bc 9761 0b3d 4336 e23c
000002f0: 971f bf3b 4018 ecbc cb0d 023d eaef f33b
00000300: daf7 823d 686b 1e3d 9309 35bd 1850 0dba
00000310: 9862 80bd 0148 c03c c394 b03a ee5b 0bbd
00000320: 3a7d 523d 62ee 7c3c fa57 a83d d233 96bd
00000330: ed6d 77bb 569b 783d 37e5 eebc 3a9f 33bd
00000340: 6afc 07bc 4b1f b83d 60f8 9d3b 8148 623d
00000350: 4227 ddbc 478a b6bd 78bb 80bd e97f 493d
00000360: 6286 74bd cb84 d2bc da73 af3c ba51 e2bc
00000370: 65f7 683c 9c22 283d eb8b ee3b 2974 5abd
00000380: 0081 993d 44a5 bdbc 986d b03c 3529 37bc
00000390: 8d86 29bc 2c1f 1a3c 3790 7cbd 704f 853c
000003a0: f3b3 573c 7c54 8f3d 5ba9 c1bc 3c29 49bc
000003b0: 388b e43a cb55 94bb 4137 39bb 0aa1 91bd
000003c0: e417 083c 9835 81bd 7b45 403c 35fd a0bb
000003d0: 701d 663d e961 df3c 2241 2fbd 579a 023d
000003e0: f717 243d 2a04 85bd ed42 063c df9f 743d
000003f0: 4636 89bc 0028 9e3c 9c78 913c 6f94 593d

idcnn.idcnn.block0.layer1.bias f4 [64]
-0.033957623 0.020143919 -0.0004605036 0.017591702 -0.07045801 0.0112676835 0.0009248525 0.063004255
-0.043448523 -0.083976686 0.0144394925 0.040104583 -0.0033778287 0.055814173 -0.059445508 -0.04430408
-0.013515339 0.031123841 0.034251213 0.02953663 0.031458374 0.04942808 0.003199539 -0.06653198
0.04484413 0.039565265 0.017562097 0.0119244335 0.021976717 0.013590126 0.057253703 -0.033732094
0.081982575 -0.03532477 0.013654947 0.06151056 0.04780273 0.021977726 -0.055344444 0.05374614
-0.039959773 0.03435678 0.051369615 -0.020718133 -0.0141892675 -0.04091929 -0.014364043 -0.032101616
-0.00091013615 -0.06834089 -0.007759037 0.017507207 -0.057256106 0.0068587307 -0.027250051 -0.040716507
-0.06976689 0.024822775 0.03323453 -0.025948483 0.005845117 -0.033081073 0.039177388 0.08540609
00000000: 2617 0bbd dc04 a53c bf6f f1b9 791c 903c
00000010: 4a4c 90bd 179c 383c cd71 723a 6008 813d
00000020: 14f7 31bd f8fb abbd 9f93 6c3c b444 243d
00000030: 905e 5dbb 679d 643d 227d 73bd 3278 35bd
00000040: 716f 5dbc 6df7 fe3c 004b 0c3d cdf6 f13c
00000050: 7fda 003d 1975 4a3d 5baf 513b eb41 88bd
00000060: 7aae 373d 300f 223d 63de 8f3c b35e 433c
00000070: 8408 b43c 1fa9 5e3c dc82 6a3d aa2a 0abd
00000080: 7be6 a73d b5b0 10bd 00b9 5f3c 7ff2 7b3d
00000090: cccc 433d a20a b43c dbb0 62bd ea24 5c3d
000000a0: dcac 23bd b2b9 0c3d f268 523d 13b9 a9bc
000000b0: 1a7a 68bc fc9a 27bd 2a57 6bbc fc7c 03bd
000000c0: 3496 6eba 4ff6 8bbd 853f febb 466b 8f3c
000000d0: 6185 6abd 34bf e03b 803b dfbc 5ac6 26bd
000000e0: f1e1 8ebd 2259 cb3c ee20 083d ea91 d4bc
000000f0: 6588 bf3b 0580 07bd 7878 203d 63e9 ae3d

idcnn.idcnn.block0.layer2.weight f4 [64, 64, 3]
-0.002506928 -0.0089495145 -0.053408474 -0.03898922 -0.04962968 -0.06853773 -0.047672108 0.03841998
0.016608862 0.04838981 -0.004243196 0.053215533 0.010182265 -0.038096245 0.07169683 0.007395067
0.038680363 0.006952218 -0.029415136 -0.05624406 0.008261893 0.01941937 0.061288916 -0.013583314
-0.05811411 -0.010609566 -0.044116315 0.041780006 -0.048855245 0.008359052 0.07717175 0.052370794
-0.009104186 0.05568449 0.01976591 -0.045266304 0.009304044 -0.0445677 0.03629295 -0.0069455663
0.027800933 0.014234036 -0.026344461 0.07595594 -0.025129316 -0.06305193 -0.034517333 0.05222259
0.06720877 0.04410878 0.06286041 -0.05889461 -0.077842735 0.02742354 0.040692057 -0.06502926
-0.02561466 0.055624284 0.04114119 -0.09245793 0.030984191 0.047514055 -0.040056366 0.028647192
-0.04399505 0.045761667 -0.07070084 0.011631631 -0.004959686 -0.053031724 -0.03366265 0.034136303
0.030570682 0.03788074 0.008287107 0.06255489 -0.021486392 0.0593878 -0.062406 -0.015341108
0.013322589 0.059131343 -0.07098299 -0.03169887 -0.006368744 0.022720555 -0.001686451 0.0132717015
0.042340573 -0.023130555 0.007695975 0.028063886 -0.03568662 0.043341793 0.07664629 -0.04136658
0.012274043 0.028703451 0.015242507 0.034981586 -0.048993733 0.07393077 -0.060162224 -0.03909772
-0.007968894 -0.06152641 0.05732917 -0.06597962 -0.0075364313 0.044664413 -0.028428642 -0.022347696
-0.07422949 -0.033682127 0.034430746 -0.02165897 0.001006983 -0.042679064 0.045694526 0.036147587
-0.0581066 -0.012943333 0.015983278 -0.011298399 -0.01948317 -0.03507087 -0.017108064 -0.025031075
0.03851639 0.044128112 -0.03602758 -0.01224527 -0.065213956 0.056289874 0.0030456458 0.011459479
0.058871128 -0.07279432 0.052465755 -0.026702832 -0.0728891 -0.029441806 -0.0003000794 -0.030673057
-0.06505028 -0.04583015 0.022317778 0.053305916 -0.026141305 -0.030120967 0.0042086244 0.008606781
0.012329348 -0.021326518 0.033022847 0.019090202 -0.020559344 0.031426154 -0.0005669077 0.057879876
0.06764962 0.020442849 -0.039888423 0.016781794 0.030100008 -0.021542432 0.04935401 -0.057529017
-0.013167188 0.012074118 -0.017153418 -0.056402225 -0.028389156 0.033052348 0.028883785 0.0056807464
0.060886312 0.07318179 -0.026671914 -0.022173852 -0.067942046 -0.06483634 0.04134696 -0.037851047
-0.06238727 -0.03310454 0.05618043 -0.019296767 -0.029742597 0.062473197 0.027400784 0.053558815
0.0016881162 -0.02338307 0.03485871 0.033313286 -0.04664888 -0.0049054045 0.06297951 -0.022612805
-0.044276617 -0.045721076 0.04063467 -0.06718574 0.048431404 0.074075274 0.07899826 -0.012324088
0.055173967 -0.073079765 -0.0037063234 -0.024784861 -0.0014548607 0.062007662 -0.057765625 -0.06697531
-0.0026729745 0.035560455 -0.05610028 0.06195718 0.012448214 0.026707122 -0.047702633 0.026843788
-0.07418834 -0.011191446 -0.048046097 -0.04761225 0.065157175 -0.051576752 0.082256235 -0.05890271
-0.006103588 0.029773101 0.062514834 -0.03569626 -0.05817759 0.012178962 -0.0418169 -0.037988417
-0.04019011 0.06401718 0.054807935 0.023506396 0.047539376 -0.057646062 0.0073719076 -0.037754938
-0.010726988 -0.07748946 -0.048742913 0.02693661 -0.0235893 0.05041713 0.049231082 0.05145071
00000000: 464b 24bb fca0 12bc d8c2 5abd 29b3 1fbd
00000010: 7e48 4bbd 825d 8cbd d443 43bd 455e 1d3d
00000020: 4f0f 883c 6534 463d 820a 8bbb 88f8 593d
00000030: 84d3 263c cf0a 1cbd cad5 923d 5152 f23b
00000040: 4d6f 1e3d 6ecf e33b 03f8 f0bc 2c60 66bd
00000050: e45c 073c 5f15 9f3c 160a 7b3d 8c8c 5ebc
00000060: 1009 6ebd bfd3 2dbc 4fb3 34bd 8321 2b3d
00000070: 701c 48bd 68f4 083c 390c 9e3d c282 563d
00000080: b929 15bc 6b15 643d 1eec a13c 2969 39bd
00000090: fd6f 183c 9f8c 36bd eba7 143d a297 e3bb
000000a0: c8be e33c e035 693c 57d0 d7bc ca8e 9b3d
000000b0: ffdb cdbc 5f21 81bd 0c62 0dbd 5be7 553d
000000c0: c0a4 893d 68ab 343d f5bc 803d 793b 71bd
000000d0: 036c 9fbd 55a7 e03c b7ac 263d 102e 85bd
000000e0: d6d5 d1bc 4ad6 633d aa83 283d 955a bdbd
000000f0: 8fd2 fd3c 199e 423d 2512 24bd 84ad ea3c
00000100: 2734 34bd 9670 3b3d 9acb 90bd 9992 3e3c
00000110: dd84 a2bb cb37 59bd d9e1 09bd 82d2 0b3d
00000120: 5e6f fa3c d628 1b3d a5c6 073c c71c 803d
00000130: 3b04 b0bc 9f40 733d 6f9d 7fbd 4559 7bbc
00000140: fd46 5a3c b533 723d 885f 91bd add6 01bd
00000150: e6b0 d0bb 7520 ba3c e80b ddba 8d71 593c
00000160: 4f6d 2d3d 4a7c bdbc 842e fc3b 3ce6 e53c
00000170: 222c 12bd 2a87 313d bbf8 9c3d 0170 29bd
00000180: 1119 493c 8023 eb3c b5bb 793c da48 0f3d
00000190: a7ad 48bd 0469 973d aa6c 76bd ee24 20bd
000001a0: f78f 02bc 1e03 7cbd fed1 6a3d 5320 87bd
000001b0: 2bf4 f6bb 08f2 363d 2fe3 e8bc 8412 b7bc
000001c0: a105 98bd 45f6 09bd 4107 0d3d 276e b1bc
000001d0: befc 833a 3ed0 2ebd 2f2a 3b3d 7e0f 143d
000001e0: 3001 6ebd 4610 54bc 5def 823c ec1c 39bc
000001f0: 2b9b 9fbc 79a6 0fbd 3626 8cbc f80d cdbc
00000200: 5dc3 1d3d aebf 343d a891 13bd 63a0 48bc
00000210: e58e 85bd 3690 663d 7599 473b 8ac0 3b3c
00000220: da22 713d 3015 95bd 55e6 563d e6bf dabc
00000230: e146 95bd f12f f1bc fa53 9db9 1046 fbbc
00000240: 1539 85bd 65b8 3bbd c6d3 b63c 4e57 5a3d
00000250: 4a26 d6bc 3fc0 f6bc 80e8 893b 7503 0d3c
00000260: 0901 4a3c f3b4 aebc f742 073d 0e63 9c3c
00000270: 126c a8bc b6b8 003d 889c 14ba 7313 6d3d
00000280: e28b 8a3d c377 a73c 0b62 23bd f979 893c
00000290: 4b94 f63c c179 b0bc 6e27 4a3d 8ca3 6bbd
000002a0: 30bb 57bc 85d2 453c 5385 8cbc 0506 67bd
000002b0: 6090 e8bc e661 073d b09d ec3c 8e25 ba3b
000002c0: ed63 793d 56e0 953d 0f7f dabc f0a5 b5bc
000002d0: 3325 8bbd eac8 84bd 6e5b 293d b309 1bbd
000002e0: cb89 7fbd a098 07bd 731d 663d 4114 9ebc
000002f0: bfa6 f3bc e5e3 7f3d 9c77 e03c 7d60 5b3d
00000300: c843 dd3a da8d bfbc 02c8 0e3d 8373 083d
00000310: e512 3fbd 84bd a0bb 67fb 803d 7d3e b9bc
00000320: 665b 35bd 0646 3bbd 8a70 263d ad98 89bd
00000330: 0260 463d c7b4 973d d7c9 a13d f9ea 49bc
00000340: 19fe 613d d8aa 95bd cae5 72bb 9f09 cbbc
00000350: 06b1 beba bffb 7d3d a69b 6cbd 5a2a 89bd
00000360: 122d 2fbb d7a7 113d 68c9 65bd d0c6 7d3d
00000370: 98f3 4b3c e5c8 da3c d663 43bd 81e7 db3c
00000380: 0ef0 97bd 545c 37bc fccb 44bd 1005 43bd
00000390: 2071 853d 2542 53bd f575 a83d f843 71bd
000003a0: 9b00 c8bb b8e6 f33c c707 803d 3e36 12bd
000003b0: a04b 6ebd 458a 473c 3348 2bbd be99 1bbd
000003c0: 639e 24bd 701b 833d 497e 603d 7c90 c03c
000003d0: a6b8 423d 471e 6cbd 0b90 f13b eca4 1abd
000003e0: 40c0 2fbc cbb2 9ebd a6a6 47bd 2aaa dc3c
000003f0: 593e c1bc 3182 4e3d 88a6 493d fbbd 523d

idcnn.idcnn.block0.layer2.bias f4 [64]
0.06329629 -0.017169934 0.046863347 0.028446672 -0.043450713 -0.005031782 0.027631003 0.008848608
0.012116412 0.019710839 -0.030789724 0.046848014 0.05865329 0.016569898 0.044819754 -0.019743651
-0.031437676 0.075558946 -0.045721997 0.06411011 0.03129833 0.040064804 0.0528721 0.034421355
0.0677213 0.04486095 -0.048433617 0.050193045 -0.07281798 0.012767858 0.070809096 0.07830258
0.017857524 -0.046608835 0.07216982 -0.008406723 -0.019684412 0.03362376 -0.029910289 -0.020382697
0.029824328 -0.01848431 -0.055968463 -0.014444813 -0.07903789 -0.018970273 0.034926683 -0.054938838
-0.015361815 -0.025185062 -0.08556009 0.0031284923 0.07814142 0.018952593 0.07221166 -0.076080345
-0.029706156 -0.06518401 -0.018323539 -0.016833916 -0.041655444 0.03707183 -0.054204836 0.03546073
00000000: 7ca1 813d f6a7 8cbc c8f3 3f3d ff08 e93c
00000010: 60f9 31bd a6e1 a4bb 6a5a e23c c0f9 103c
00000020: ea83 463c a078 a13c bb3a fcbc b4e3 3f3d
00000030: 6f3e 703d 98bd 873c eb94 373d 70bd a1bc
00000040: cbc4 00bd a6be 9a3d fd46 3bbd 294c 833d
00000050: ad32 003d fe1a 243d 6a90 583d 68fd 0c3d
00000060: 77b1 8a3d 1ec0 373d 5462 46bd 3997 4d3d
00000070: 9821 95bd 4730 513c 5c04 913d 1a5d a03d
00000080: f149 923c e8e8 3ebd c5cd 933d 5abc 09bc
00000090: 3441 a1bc 11b9 093d 6c06 f5bc 9df9 a6bc
000000a0: 2652 f43c 686c 97bc 303f 65bd f0a9 6cbc
000000b0: 9ede a1bd 8c67 9bbc 480f 0f3d 8c07 61bd
000000c0: 1fb0 7bbc e750 cebc 213a afbd 6407 4d3b
000000d0: 9c08 a03d 7842 9b3c b5e3 933d 03d0 9bbd
000000e0: 535a f3bc 327f 85bd 3f1b 96bc 48e7 89bc
000000f0: e69e 2abd a2d8 173d e405 5ebd 453f 113d

idcnn.idcnn.layernorm.a_2 f4 [10]
1.0039027 1.0063032 0.99895126 1.0123112 0.99564993 1.0062388 0.9954735 0.9991838
0.9878176 0.9847946
00000000: e27f 803f 8bce 803f 45bb 7f3f 6a93 813f
00000010: eae2 7e3f 6fcc 803f 5ad7 7e3f 82ca 7f3f
00000020: 9de1 7c3f 801b 7c3f

idcnn.idcnn.layernorm.b_2 f4 [10]
0.0074287876 -0.0069889063 -0.0013531299 0.0015584273 0.021532346 0.006365476 -0.01349273 0.0041180765
-0.0009633666 -0.01066227
00000000: 306d f33b 3203 e5bb 815b b1ba 2544 cc3a
00000010: 9a64 b03c 7c95 d03b 9d10 5dbc eef0 863b
00000020: 708a 7cba cdb0 2ebc

idcnn.idcnn.block1.layer0.weight f4 [64, 64, 3]
-0.036631245 -0.0061403792 -0.04541336 0.0312608 0.009065946 0.0014345673 0.04503733 -0.016393203
-0.06166358 0.014020078 -0.069718786 0.009919117 0.025140349 0.0024389562 0.023334295 -0.046395898
-0.06803533 -0.019765168 0.056212876 -0.025918879 -0.046678696 -0.037937425 -0.049011104 -0.015324039
-0.048356786 -0.044659425 -0.02429151 -0.07617003 -0.030935174 -0.04860262 -0.048859574 0.027304692
0.0020175015 0.043467022 0.06335931 0.06502062 0.044396024 -0.026472077 -0.060706243 -0.013216224
-0.00990059 0.050858658 -0.057581075 0.034447353 0.0019735899 0.044046648 0.024527099 -0.028717652
-0.01522596 -0.06227154 0.057643864 -0.058126118 -0.016629996 0.030230442 0.062854104 -0.05906536
0.047800045 -0.029672064 0.0021748773 0.0038329398 0.034882568 -0.030932978 -0.0042276266 0.03911439
-0.069246665 -0.04516362 -0.018827865 0.05168977 0.072053105 -0.03991398 0.059320007 0.06789978
-0.044924233 0.045533232 0.055896953 0.07199176 0.063200474 0.015078323 0.017767267 0.0065964228
0.032559693 0.007963927 -0.04712442 0.055995684 -0.05947812 -0.015608757 -0.0146519365 0.02807904
0.05886644 -0.008538209 -0.01922947 0.023967177 0.067298025 -0.0313063 0.014262073 0.05312383
0.040137857 0.0242455 -0.050757557 0.043324485 -0.008998828 0.05679497 0.0063144765 0.04075667
-0.040289007 0.05672748 0.038435265 -0.01036821 0.041864254 0.04414556 0.02529166 0.0150694
-0.019428618 -0.0167043 0.025557118 -0.02399337 0.010519406 0.015603376 -0.011616892 0.040514056
-0.018197283 -0.03997296 0.05648845 -0.026828678 -0.050107095 -0.008008392 0.038459975 -0.04202191
-0.04501599 0.005065847 -0.06846204 -0.05895155 -0.033505566 0.045461398 0.005586276 0.033035498
-0.024333451 0.07015721 -0.057365574 -0.0026616969 0.038135365 -0.050446715 0.030043716 0.03208368
0.02839974 0.03892046 -0.0030523213 -0.056243137 0.020959334 0.027190708 -0.070465036 0.0317535
0.05389015 -0.00847852 0.034538504 -0.045721322 -0.06530051 -0.044777755 0.0180825 -0.033160053
-0.02568062 0.01745227 -0.01188235 -0.020795736 -0.05167845 0.019322008 -0.058092006 0.01609864
0.031843606 -0.0112446 0.008879032 0.011231357 0.073924 -0.05779232 0.036765363 0.05195346
0.0015294359 0.04404098 -0.024515843 0.034241572 -0.04353268 -0.0020040132 0.06464015 0.032212686
-0.061413366 -0.06138666 -0.022967285 0.043031547 0.0065173134 -0.056245364 -0.01961865 0.06854506
-0.020531412 0.055189054 -0.034153022 -0.04590948 0.0023629526 0.055421658 -0.028532183 -0.032932423
-0.0031994106 0.04887854 -0.055850234 -0.013851011 0.028046805 0.06505618 -0.06368499 -0.0027621894
-0.061271757 -0.03061849 -0.017092118 0.01591334 -0.05837036 -0.01384553 -0.008311566 -0.036941074
-0.043646812 -0.051522855 0.012001197 -0.015770871 -0.012646853 -0.028746063 -0.02155672 0.029163089
0.003047864 0.050619315 -0.03371172 -0.071097 0.07384596 0.008651593 -0.013316739 -0.008891103
-0.007556323 -0.058808267 0.009360623 -0.055802543 -0.01616052 0.025623152 -0.013456411 0.075515665
-0.013434899 0.023231743 0.049619697 -0.033052027 -0.054103997 -0.0051159617 0.061433673 0.062277652
-0.061757315 -0.05703739 0.05910085 -0.041954946 0.046227057 0.010682741 0.023523295 0.072686635
00000000: a50a 16bd 3c35 c9bb 5c03 3abd 530b 003d
00000010: 5589 143c 1708 bc3a 1079 383d 0a4b 86bc
00000020: f392 7cbd 78b4 653c b9c8 8ebd cb83 223c
00000030: 22f3 cd3c e5d6 1f3b 9027 bf3c a009 3ebd
00000040: 1b56 8bbd 90ea a1bc 793f 663d d453 d4bc
00000050: 2932 3fbd 4664 1bbd debf 48bd ae11 7bbc
00000060: c411 46bd cdec 36bd fdfe c6bc 08ff 9bbd
00000070: c36b fdbc 8a13 47bd fa20 48bd 17ae df3c
00000080: 0f38 043b 7a0a 323d 87c2 813d 8829 853d
00000090: 9bd8 353d f8db d8bc 1ca7 78bd dc88 58bc
000000a0: 1636 22bc 2b51 503d 22da 6bbd ab18 0d3d
000000b0: 5857 013b 426a 343d 0eed c83c 4841 ebbc
000000c0: 4e76 79bc 7110 7fbd f91b 6c3d a715 6ebd
000000d0: a13b 88bc d5a5 f73c a7b9 803d 85ee 71bd
000000e0: fbc9 433d d412 f3bc 6388 0e3b 0f32 7b3b
000000f0: 06e1 0e3d 2867 fdbc e787 8abb 6936 203d
00000100: 32d1 8dbd 7dfd 38bd e53c 9abc a7b8 533d
00000110: 9490 933d d77c 23bd 89f9 723d 0a0f 8b3d
00000120: 7902 38bd 0e81 3a3d 34f4 643d 6a70 933d
00000130: 406f 813d 120b 773c a98c 913c ce26 d83b
00000140: 505d 053d 227b 023c 8905 41bd bb5b 653d
00000150: 549f 73bd dfbb 7fbc ad0e 70bc 0406 e63c
00000160: f01d 713d d8e3 0bbc 1f87 9dbc d056 c43c
00000170: 8cd3 893d 093b 00bd 78ab 693c 6098 593d
00000180: 9867 243d 809e c63c 28e7 4fbd 0475 313d
00000190: d26f 13bc d8a1 683d abe9 ce3b 77f0 263d
000001a0: 1606 25bd 135b 683d 4c6e 1d3d 6ddf 29bc
000001b0: da79 2b3d fad1 343d 7530 cf3c a5e5 763c
000001c0: c428 9fbc 75d7 88bc 295d d13c be8d c4bc
000001d0: 9659 2c3c 4da5 7f3c c754 3ebc 11f2 253d
000001e0: 7812 95bc b0ba 23bd 6f60 673d d1c7 dbbc
000001f0: 193d 4dbd a135 03bc 3588 1d3d 2b1f 2cbd
00000200: b062 38bd 68ff a53b d335 8cbd 2e77 71bd
00000210: 223d 09bd bb35 3a3d 140d b73b 3b50 073d
00000220: f256 c7bc 95ae 8f3d 2af8 6abd dd6f 2ebb
00000230: d433 1c3d 37a1 4ebd 3d1e f63c 2d6a 033d
00000240: 92a6 e83c 0f6b 1f3d 7409 48bb 345f 66bd
00000250: e9b2 ab3c 0cbf de3c f94f 90bd f50f 023d
00000260: ebbb 5c3d 7ee9 0abc 3f78 0d3d 4846 3bbd
00000270: 46bc 85bd e168 37bd c021 943c d6d2 07bd
00000280: 2a60 d2bc 10f8 8e3c 30ae 42bc d25b aabc
00000290: c8ac 53bd 3049 9e3c e2f1 6dbd 4ce1 833c
000002a0: 716e 023d 453b 38bc 5c79 113c ba03 383c
000002b0: 7765 973d a4b7 6cbd 4797 163d 27cd 543d
000002c0: 5a77 c83a 5164 343d 73d5 c8bc e440 0c3d
000002d0: 534f 32bd c355 03bb 0e62 843d 73f1 033d
000002e0: 958c 7bbd 9470 7bbd e325 bcbc d941 303d
000002f0: 308f d53b 8a61 66bd 4bb7 a0bc 5a61 8c3d
00000300: 7e31 a8bc eb0d 623d 0ae4 0bbd 940b 3cbd
00000310: c4db 1a3b d201 633d 53bc e9bc 26e4 06bd
00000320: 34ad 51bb dd34 483d 37c3 64bd 5aef 62bc
00000330: 6ac2 e53c 2d3c 853d 476d 82bd d905 35bb
00000340: 18f8 7abd a1d3 fabc c504 8cbc b15c 823c
00000350: c215 6fbd 5dd8 62bc 3c2d 08bc 864f 17bd
00000360: 00c7 32bd a109 53bd aba0 443c ea31 81bc
00000370: bf34 4fbc dd7c ebbc b897 b0bc 6ee7 ee3c
00000380: acbe 473b 3356 4f3d 4d15 0abd 4e9b 91bd
00000390: 8d3c 973d 69bf 0d3c 742e 5abc fdab 11bc
000003a0: 089b f7bb f0e0 70bd 4c5d 193c 3591 64bd
000003b0: 1163 84bc a5e7 d13c 4778 5cbc f5a7 9a3d
000003c0: 0d1e 5cbc 7f50 be3c 063e 4b3d 9061 07bd
000003d0: 279c 5dbd cca3 a7bb e0a1 7b3d da16 7f3d
000003e0: 3df5 7cbd 0aa0 69bd bc13 723d f3d8 2bbd
000003f0: 9558 3d3d aa06 2f3c edb3 c03c bbdc 943d

idcnn.idcnn.block1.layer0.bias f4 [64]
-0.065832585 0.036063254 -0.01421125 -0.02980953 0.062380847 0.032537088 -0.07175574 -0.05002791
0.010042093 -0.06495099 -0.00021793612 0.04669837 -0.02851675 -0.063445315 -0.07895705 0.011798947
0.054257795 0.048967797 -0.054251023 0.052535098 0.06388692 -0.033108573 -0.0573709 -0.06667292
-0.018443223 0.04811599 0.0012442775 -0.012156619 -0.027710758 -0.005936392 -0.022544488 -0.028545955
0.07170573 -0.0717857 0.05550746 0.0724437 -0.0542066 0.061379164 0.04483631 0.04857045
-0.030907918 0.06242004 -0.04363774 0.040097397 0.06587873 -0.013526861 0.015383628 0.016198544
0.035778057 -0.013905744 0.0034414046 0.002149898 0.03983356 0.024419116 0.008901868 -0.07182579
-0.016492592 0.027253011 0.008815355 0.008217762 -0.047059383 0.061242033 -0.05903085 0.03062095
00000000: 3cd3 86bd 10b7 133d 4dd6 68bc 1e33 f4bc
00000010: 0f83 7f3d 9c45 053d acf4 92bd 11ea 4cbd
00000020: 9787 243c 0605 85bd c885 64b9 ca46 3f3d
00000030: f69b e9bc 9eef 81bd 3cb4 a1bd 5f50 413c
00000040: 6c3d 5e3d 7592 483d 5236 5ebd 0b2f 573d
00000050: 25d7 823d db9c 07bd c0fd 6abd d08b 88bd
00000060: 3e16 97bc 4615 453d 0617 a33a 8e2c 47bc
00000070: ac01 e3bc 1186 c2bb 38af b8bc 35d9 e9bc
00000080: 74da 923d 6204 93bd ca5b 633d 5d5d 943d
00000090: bd07 5ebd b868 7b3d 47a6 373d cff1 463d
000000a0: 9a32 fdbc 28ac 7f3d 7dbd 32bd 2b3d 243d
000000b0: 6deb 863d c49f 5dbc 9d0b 7c3c cfb2 843c
000000c0: 038c 123d ebd4 63bc 3089 613b 4ee5 0c3b
000000d0: 8428 233d 990a c83c 24d9 113c 6619 93bd
000000e0: 791b 87bc b541 df3c 476e 103c cba3 063c
000000f0: 57c1 40bd edd8 7a3d 55ca 71bd c9d8 fa3c

idcnn.idcnn.block1.layernorm.a_2 f4 [10]
1.0227476 1.0220474 1.02745 1.019392 1.0228678 1.0140593 1.0079902 1.0037745
0.9911942 0.9808872
00000000: 65e9 823f 73d2 823f 7b83 833f 707b 823f
00000010: 55ed 823f b2cc 813f d305 813f af7b 803f
00000020: e7be 7d3f 6c1b 7b3f

idcnn.idcnn.block1.layernorm.b_2 f4 [10]
-0.021989306 -0.0007749058 -0.014537341 0.003256254 0.016474878 0.01301837 0.0025979828 0.0011084307
-0.009227705 0.007817554
00000000: eb22 b4bc 0c23 4bba 072e 6ebc e066 553b
00000010: 53f6 863c 004b 553c eb42 2a3b c348 913a
00000020: cd2f 17bc 3315 003c
